…
customized start/end sample from 90 to 91

 %%%%%%%%%%%%%%%%%%%%%%%%%%%%%%%%%%% idx: 0, vnnlib ID: 90 %%%%%%%%%%%%%%%%%%%%%%%%%%%%%%%%%%%%%%%%
Using onnx onnx/TinyImageNet_resnet_medium.onnx
Using vnnlib vnnlib/TinyImageNet_resnet_medium_prop_idx_782_sidx_6135_eps_0.0039.vnnlib
Loading onnx ../../vnncomp2022_benchmarks/benchmarks/cifar100_tinyimagenet_resnet/onnx/TinyImageNet_resnet_medium.onnx wih quirks {}
Onnx optimization with flag merge_bn
Found existed optimized onnx model at ../../vnncomp2022_benchmarks/benchmarks/cifar100_tinyimagenet_resnet/onnx/TinyImageNet_resnet_medium.onnx.optimized
ConvertModel(
  (Conv_120): Conv2d(3, 64, kernel_size=(3, 3), stride=(2, 2))
  (Relu_121): ReLU(inplace=True)
  (Conv_123): Conv2d(64, 128, kernel_size=(3, 3), stride=(2, 2), padding=(1, 1))
  (Relu_124): ReLU(inplace=True)
  (Conv_126): Conv2d(128, 128, kernel_size=(3, 3), stride=(1, 1), padding=(1, 1))
  (Conv_128): Conv2d(64, 128, kernel_size=(1, 1), stride=(2, 2))
  (Add_129): Add()
  (Conv_131): Conv2d(128, 128, kernel_size=(3, 3), stride=(1, 1), padding=(1, 1))
  (Relu_132): ReLU(inplace=True)
  (Conv_134): Conv2d(128, 128, kernel_size=(3, 3), stride=(1, 1), padding=(1, 1))
  (Add_135): Add()
  (Conv_137): Conv2d(128, 128, kernel_size=(3, 3), stride=(1, 1), padding=(1, 1))
  (Relu_138): ReLU(inplace=True)
  (Conv_140): Conv2d(128, 128, kernel_size=(3, 3), stride=(1, 1), padding=(1, 1))
  (Add_141): Add()
  (Conv_143): Conv2d(128, 128, kernel_size=(3, 3), stride=(1, 1), padding=(1, 1))
  (Relu_144): ReLU(inplace=True)
  (Conv_146): Conv2d(128, 128, kernel_size=(3, 3), stride=(1, 1), padding=(1, 1))
  (Add_147): Add()
  (Conv_149): Conv2d(128, 128, kernel_size=(3, 3), stride=(2, 2), padding=(1, 1))
  (Relu_150): ReLU(inplace=True)
  (Conv_152): Conv2d(128, 128, kernel_size=(3, 3), stride=(1, 1), padding=(1, 1))
  (Conv_154): Conv2d(128, 128, kernel_size=(1, 1), stride=(2, 2))
  (Add_155): Add()
  (Conv_157): Conv2d(128, 128, kernel_size=(3, 3), stride=(1, 1), padding=(1, 1))
  (Relu_158): ReLU(inplace=True)
  (Conv_160): Conv2d(128, 128, kernel_size=(3, 3), stride=(1, 1), padding=(1, 1))
  (Add_161): Add()
  (Conv_163): Conv2d(128, 128, kernel_size=(3, 3), stride=(1, 1), padding=(1, 1))
  (Relu_164): ReLU(inplace=True)
  (Conv_166): Conv2d(128, 128, kernel_size=(3, 3), stride=(1, 1), padding=(1, 1))
  (Add_167): Add()
  (Conv_169): Conv2d(128, 128, kernel_size=(3, 3), stride=(1, 1), padding=(1, 1))
  (Relu_170): ReLU(inplace=True)
  (Conv_172): Conv2d(128, 128, kernel_size=(3, 3), stride=(1, 1), padding=(1, 1))
  (Add_173): Add()
  (Flatten_174): Flatten()
  (Gemm_175): Linear(in_features=6272, out_features=200, bias=True)
  (Relu_176): ReLU(inplace=True)
  (Gemm_modelOutput): Linear(in_features=200, out_features=200, bias=True)
)
9408 inputs and 200 outputs in vnnlib
Model prediction is: tensor([[… device='cuda:0')
layer /86 using sparse-features alpha with shape [719]; unstable size 719; total size 46656 (torch.Size([1, 64, 27, 27]))
layer /86 start_node /input.4 using sparse-spec alpha with unstable size 107 total_size 25088 output_shape (128, 14, 14)
layer /86 start_node /input.8 using sparse-spec alpha with unstable size 293 total_size 25088 output_shape (128, 14, 14)
…
