…
  pgd_steps: 100
  pgd_restarts: 50
  pgd_early_stop: true
  pgd_lr_decay: 0.99
  pgd_alpha: auto
  pgd_loss_mode: null
  enable_mip_attack: false
  cex_path: ./test_cex.txt
  attack_mode: PGD
  gama_lambda: 10.0
  gama_decay: 0.9
  check_clean: false
  input_split:
    pgd_steps: 100
    pgd_restarts: 30
    pgd_alpha: auto
  input_split_enhanced:
    pgd_steps: 200
    pgd_restarts: 5000000
    pgd_alpha: auto
  input_split_check_adv:
    pgd_steps: 5
    pgd_restarts: 5
    pgd_alpha: auto
debug:
  lp_test: null

Experiments at Wed Sep 14 23:50:36 2022 on diablo.cs.ucla.edu
DenseSequential(
  (0): Conv2d(3, 16, kernel_size=(3, 3), stride=(1, 1), padding=(1, 1))
  (1): ReLU()
  (2): Dense(
    (Ws): ModuleList(
      (0): Conv2d(16, 16, kernel_size=(3, 3), stride=(1, 1), padding=(1, 1))
    )
  )
  (3): ReLU()
  (4): Dense(
    (Ws): ModuleList(
      (0): Conv2d(16, 16, kernel_size=(1, 1), stride=(1, 1))
      (1): None
      (2): Conv2d(16, 16, kernel_size=(3, 3), stride=(1, 1), padding=(1, 1))
    )
  )
  (5): ReLU()
  (6): Dense(
    (Ws): ModuleList(
      (0): Conv2d(16, 16, kernel_size=(3, 3), stride=(1, 1), padding=(1, 1))
    )
  )
  (7): ReLU()
  (8): Dense(
    (Ws): ModuleList(
      (0): Conv2d(16, 16, kernel_size=(1, 1), stride=(1, 1))
      (1): None
      (2): Conv2d(16, 16, kernel_size=(3, 3), stride=(1, 1), padding=(1, 1))
    )
  )
  (9): ReLU()
  (10): Dense(
    (Ws): ModuleList(
      (0): Conv2d(16, 32, kernel_size=(4, 4), stride=(2, 2), padding=(1, 1))
    )
  )
  (11): ReLU()
  (12): Dense(
    (Ws): ModuleList(
      (0): Conv2d(16, 32, kernel_size=(2, 2), stride=(2, 2))
      (1): None
      (2): Conv2d(32, 32, kernel_size=(3, 3), stride=(1, 1), padding=(1, 1))
    )
  )
  (13): ReLU()
  (14): Dense(
    (Ws): ModuleList(
      (0): Conv2d(32, 64, kernel_size=(4, 4), stride=(2, 2), padding=(1, 1))
    )
  )
  (15): ReLU()
  (16): Dense(
    (Ws): ModuleList(
      (0): Conv2d(32, 64, kernel_size=(2, 2), stride=(2, 2))
      (1): None
      (2): Conv2d(64, 64, kernel_size=(3, 3), stride=(1, 1), padding=(1, 1))
    )
  )
  (17): ReLU()
  (18): Flatten()
  (19): Linear(in_features=4096, out_features=1000, bias=True)
  (20): ReLU()
  (21): Linear(in_features=1000, out_features=10, bias=True)
)
Trying generic MNIST/CIFAR data loader.
Files already downloaded and verified
<frozen importlib._bootstrap>:219: RuntimeWarning: numpy.ufunc size changed, may indicate binary incompatibility. Expected 216 from C header, got 232 from PyObject
/home/zhouxingshi/miniconda3/envs/zshi/lib/python3.8/site-packages/onnx/mapping.py:27: DeprecationWarning: `np.object` is a deprecated alias for the builtin `object`. To silence this warning, use `object` by itself. Doing this will not modify any behavior and is safe. 
…
