…
saving results to a-b-crown_[cifar10_resnet_instances]_start=62_end=63_iter=50_b=2000_timeout=360_branching=kfsb-max-3_lra-init=0.1_lra=0.01_lrb=0.01_PGD=skip_cplex_cuts=False_initial_max_domains=1.npz
customized start/end sample from 62 to 63

 %%%%%%%%%%%%%%%%%%%%%%%%%%%%%%%%%%% idx: 0, vnnlib ID: 62 %%%%%%%%%%%%%%%%%%%%%%%%%%%%%%%%%%%%%%%%
Using onnx onnx/resnet_4b.onnx
Using vnnlib vnnlib_properties_pgd_filtered/resnet4b_pgd_filtered/prop_14_eps_0.004.vnnlib
Precompiled vnnlib file found at ../../vnncomp2021/benchmarks/cifar10_resnet/vnnlib_properties_pgd_filtered/resnet4b_pgd_filtered/prop_14_eps_0.004.vnnlib.compiled
Loading onnx ../../vnncomp2021/benchmarks/cifar10_resnet/onnx/resnet_4b.onnx wih quirks {}
ConvertModel(
  (Conv_27): Conv2d(3, 16, kernel_size=(3, 3), stride=(2, 2), padding=(1, 1))
  (Relu_28): ReLU(inplace=True)
  (Conv_29): Conv2d(16, 32, kernel_size=(3, 3), stride=(2, 2), padding=(1, 1))
  (Relu_30): ReLU(inplace=True)
  (Conv_31): Conv2d(32, 32, kernel_size=(3, 3), stride=(1, 1), padding=(1, 1))
  (Conv_32): Conv2d(16, 32, kernel_size=(1, 1), stride=(2, 2))
  (Add_33): Add()
  (Relu_34): ReLU(inplace=True)
  (Conv_35): Conv2d(32, 32, kernel_size=(3, 3), stride=(1, 1), padding=(1, 1))
  (Relu_36): ReLU(inplace=True)
  (Conv_37): Conv2d(32, 32, kernel_size=(3, 3), stride=(1, 1), padding=(1, 1))
  (Add_38): Add()
  (Relu_39): ReLU(inplace=True)
  (Conv_40): Conv2d(32, 32, kernel_size=(3, 3), stride=(2, 2), padding=(1, 1))
  (Relu_41): ReLU(inplace=True)
  (Conv_42): Conv2d(32, 32, kernel_size=(3, 3), stride=(1, 1), padding=(1, 1))
  (Conv_43): Conv2d(32, 32, kernel_size=(1, 1), stride=(2, 2))
  (Add_44): Add()
  (Relu_45): ReLU(inplace=True)
  (Conv_46): Conv2d(32, 32, kernel_size=(3, 3), stride=(1, 1), padding=(1, 1))
  (Relu_47): ReLU(inplace=True)
  (Conv_48): Conv2d(32, 32, kernel_size=(3, 3), stride=(1, 1), padding=(1, 1))
  (Add_49): Add()
  (Relu_50): ReLU(inplace=True)
  (Flatten_51): Flatten()
  (Gemm_52): Linear(in_features=512, out_features=100, bias=True)
  (Relu_53): ReLU(inplace=True)
  (Gemm_54): Linear(in_features=100, out_features=10, bias=True)
)
Model prediction is: tensor([[ 1.13689613, -1.69910789, -0.77371281,  0.36231560, -1.27489316,
         -0.52829909, -1.23018956, -0.75381315,  5.67982817, -0.81278414]],
       device='cuda:0')
layer /54 using sparse-features alpha with shape [445]; unstable size 445; total size 4096 (torch.Size([1, 16, 16, 16]))
layer /54 start_node /input.4 using sparse-spec alpha with unstable size 196 total_size 2048 output_shape (32, 8, 8)
…
