…
saving results to a-b-crown_[instances]_start=2_end=3_iter=10_b=1024_timeout=360_branching=kfsb-intercept-only-max-10_lra-init=0.1_lra=0.01_lrb=0.05_PGD=skip_cplex_cuts=False_initial_max_domains=100.npz
customized start/end sample from 2 to 3

 %%%%%%%%%%%%%%%%%%%%%%%%%%%%%%%%%%% idx: 0, vnnlib ID: 2 %%%%%%%%%%%%%%%%%%%%%%%%%%%%%%%%%%%%%%%%
Using onnx onnx/resnet_3b2_bn_mixup_ssadv_4.0_bs128_lr-1_v2.onnx
Using vnnlib vnnlib/cifar10_spec_idx_2219_eps_0.00228.vnnlib
Loading onnx ../../vnncomp2022_benchmarks/benchmarks/sri_resnet_b/onnx/resnet_3b2_bn_mixup_ssadv_4.0_bs128_lr-1_v2.onnx wih quirks {'Reshape': {'fix_batch_size': True}}
ConvertModel(
  (Conv_104): Conv2d(3, 16, kernel_size=(3, 3), stride=(2, 2), padding=(1, 1))
  (Relu_67): ReLU(inplace=True)
  (Conv_107): Conv2d(16, 32, kernel_size=(1, 1), stride=(2, 2))
  (Conv_110): Conv2d(16, 32, kernel_size=(3, 3), stride=(2, 2), padding=(1, 1))
  (Relu_72): ReLU(inplace=True)
  (Conv_113): Conv2d(32, 32, kernel_size=(3, 3), stride=(1, 1), padding=(1, 1))
  (Add_75): Add()
  (Relu_76): ReLU(inplace=True)
  (Conv_116): Conv2d(32, 64, kernel_size=(1, 1), stride=(2, 2))
  (Conv_119): Conv2d(32, 64, kernel_size=(3, 3), stride=(2, 2), padding=(1, 1))
  (Relu_81): ReLU(inplace=True)
  (Conv_122): Conv2d(64, 64, kernel_size=(3, 3), stride=(1, 1), padding=(1, 1))
  (Add_84): Add()
  (Relu_85): ReLU(inplace=True)
  (Conv_125): Conv2d(64, 128, kernel_size=(1, 1), stride=(2, 2))
  (Conv_128): Conv2d(64, 128, kernel_size=(3, 3), stride=(2, 2), padding=(1, 1))
  (Relu_90): ReLU(inplace=True)
  (Conv_131): Conv2d(128, 128, kernel_size=(3, 3), stride=(1, 1), padding=(1, 1))
  (Add_93): Add()
  (Relu_94): ReLU(inplace=True)
  (Reshape_100): Reshape(shape=[ 1 -1])
  (Gemm_101): Linear(in_features=512, out_features=100, bias=True)
  (Relu_102): ReLU(inplace=True)
  (Gemm_output): Linear(in_features=100, out_features=10, bias=True)
)
Enabling quirks for Reshape operation: fix the first dimension shape to be -1 to support batchsize != 1.
input shape torch.Size([1, 128, 2, 2]), new shape is tensor([ -1, 512]).
Precompiled vnnlib file found at ../../vnncomp2022_benchmarks/benchmarks/sri_resnet_b/vnnlib/cifar10_spec_idx_2219_eps_0.00228.vnnlib.compiled
Scaling timeout: 300.0 -> 150.0
Model prediction is: tensor([[-0.41629720, -0.22246462,  1.64748049, -0.06973041, -0.83523035,
…
