…
customized start/end sample from 2 to 3

 %%%%%%%%%%%%%%%%%%%%%%%%%%%%%%%%%%% idx: 0, vnnlib ID: 2 %%%%%%%%%%%%%%%%%%%%%%%%%%%%%%%%%%%%%%%%
Using onnx ./nets/cifar10_large.onnx
Using vnnlib ./specs/networkcifar10_large_index4089_eps0.012_target6_orig5.vnnlib
Precompiled vnnlib file found at ../../vnncomp2021/benchmarks/marabou-cifar10/./specs/networkcifar10_large_index4089_eps0.012_target6_orig5.vnnlib.compiled
Loading onnx ../../vnncomp2021/benchmarks/marabou-cifar10/./nets/cifar10_large.onnx wih quirks {}
ConvertModel(
  (Transpose_sequential_2/conv2d_4/BiasAdd__7:0): Transpose()
  (Conv_sequential_2/conv2d_4/BiasAdd:0): Conv2d(3, 32, kernel_size=(4, 4), stride=(2, 2))
  (Relu_sequential_2/conv2d_4/Relu:0): ReLU(inplace=True)
  (Conv_sequential_2/conv2d_5/BiasAdd:0): Conv2d(32, 64, kernel_size=(4, 4), stride=(2, 2))
  (Relu_sequential_2/conv2d_5/Relu:0): ReLU(inplace=True)
  (Transpose_sequential_2/conv2d_5/BiasAdd__13:0): Transpose()
  (Reshape_sequential_2/flatten_2/Reshape:0): Reshape(shape=[  -1 2304])
  (MatMul_sequential_2/dense_6/BiasAdd:0): Linear(in_features=2304, out_features=128, bias=True)
  (Relu_sequential_2/dense_6/Relu:0): ReLU(inplace=True)
  (MatMul_sequential_2/dense_7/BiasAdd:0): Linear(in_features=128, out_features=64, bias=True)
  (Relu_sequential_2/dense_7/Relu:0): ReLU(inplace=True)
  (MatMul_Identity:0): Linear(in_features=64, out_features=10, bias=True)
)
Model converted to NCHW format: Sequential(
  (0): Conv2d(3, 32, kernel_size=(4, 4), stride=(2, 2))
  (1): ReLU(inplace=True)
  (2): Conv2d(32, 64, kernel_size=(4, 4), stride=(2, 2))
  (3): ReLU(inplace=True)
  (4): Transpose()
  (5): Flatten(start_dim=1, end_dim=-1)
  (6): Linear(in_features=2304, out_features=128, bias=True)
  (7): ReLU(inplace=True)
  (8): Linear(in_features=128, out_features=64, bias=True)
  (9): ReLU(inplace=True)
  (10): Linear(in_features=64, out_features=10, bias=True)
)
Attack parameters: initialization=uniform, steps=100, restarts=30, alpha=0.003000006079673767, initialization=uniform, GAMA=False
model output: tensor([[-2.01929045, -3.69776988,  0.15410791,  1.10254169, -2.51202798,
          1.30258954, -1.70436347, -0.80027425,  0.34066057, -1.22107160]],
       device='cuda:0')
pgd early stop
pgd prediction: tensor([[[-1.71275640, -3.44085288,  0.73613393,  0.79603934, -1.54976964,
…
