…
customized start/end sample from 25 to 26

 %%%%%%%%%%%%%%%%%%%%%%%%%%%%%%%%%%% idx: 0, vnnlib ID: 25 %%%%%%%%%%%%%%%%%%%%%%%%%%%%%%%%%%%%%%%%
Using onnx ./nets/cifar10_small.onnx
Using vnnlib ./specs/networkcifar10_small_index9409_eps0.012_target0_orig9.vnnlib
Precompiled vnnlib file found at ../../vnncomp2021/benchmarks/marabou-cifar10/./specs/networkcifar10_small_index9409_eps0.012_target0_orig9.vnnlib.compiled
Loading onnx ../../vnncomp2021/benchmarks/marabou-cifar10/./nets/cifar10_small.onnx wih quirks {}
ConvertModel(
  (Transpose_sequential/conv2d/BiasAdd__7:0): Transpose()
  (Conv_sequential/conv2d/BiasAdd:0): Conv2d(3, 8, kernel_size=(4, 4), stride=(2, 2))
  (Relu_sequential/conv2d/Relu:0): ReLU(inplace=True)
  (Conv_sequential/conv2d_1/BiasAdd:0): Conv2d(8, 16, kernel_size=(4, 4), stride=(2, 2))
  (Relu_sequential/conv2d_1/Relu:0): ReLU(inplace=True)
  (Transpose_sequential/conv2d_1/BiasAdd__13:0): Transpose()
  (Reshape_sequential/flatten/Reshape:0): Reshape(shape=[ -1 576])
  (MatMul_sequential/dense/BiasAdd:0): Linear(in_features=576, out_features=128, bias=True)
  (Relu_sequential/dense/Relu:0): ReLU(inplace=True)
  (MatMul_sequential/dense_1/BiasAdd:0): Linear(in_features=128, out_features=64, bias=True)
  (Relu_sequential/dense_1/Relu:0): ReLU(inplace=True)
  (MatMul_Identity:0): Linear(in_features=64, out_features=10, bias=True)
)
Model converted to NCHW format: Sequential(
  (0): Conv2d(3, 8, kernel_size=(4, 4), stride=(2, 2))
  (1): ReLU(inplace=True)
  (2): Conv2d(8, 16, kernel_size=(4, 4), stride=(2, 2))
  (3): ReLU(inplace=True)
  (4): Transpose()
  (5): Flatten(start_dim=1, end_dim=-1)
  (6): Linear(in_features=576, out_features=128, bias=True)
  (7): ReLU(inplace=True)
  (8): Linear(in_features=128, out_features=64, bias=True)
  (9): ReLU(inplace=True)
  (10): Linear(in_features=64, out_features=10, bias=True)
)
Attack parameters: initialization=uniform, steps=100, restarts=30, alpha=0.003000006079673767, initialization=uniform, GAMA=False
model output: tensor([[-1.48038661,  1.66220117, -3.08307672, -2.67680907, -1.75749767,
         -3.32766962, -5.09177923, -1.73376346, -1.54912746,  6.31401491]],
       device='cuda:0')
pgd prediction: tensor([[[-0.57654297,  1.38873911, -2.70540690, -1.99311852, -1.60884702,
…
