…
customized start/end sample from 49 to 50

 %%%%%%%%%%%%%%%%%%%%%%%%%%%%%%%%%%% idx: 0, vnnlib ID: 49 %%%%%%%%%%%%%%%%%%%%%%%%%%%%%%%%%%%%%%%%
Using onnx ./nets/cifar10_medium.onnx
Using vnnlib ./specs/networkcifar10_medium_index3364_eps0.012_target5_orig4.vnnlib
Precompiled vnnlib file found at ../../vnncomp2021/benchmarks/marabou-cifar10/./specs/networkcifar10_medium_index3364_eps0.012_target5_orig4.vnnlib.compiled
Loading onnx ../../vnncomp2021/benchmarks/marabou-cifar10/./nets/cifar10_medium.onnx wih quirks {}
ConvertModel(
  (Transpose_sequential_1/conv2d_2/BiasAdd__7:0): Transpose()
  (Conv_sequential_1/conv2d_2/BiasAdd:0): Conv2d(3, 16, kernel_size=(4, 4), stride=(2, 2))
  (Relu_sequential_1/conv2d_2/Relu:0): ReLU(inplace=True)
  (Conv_sequential_1/conv2d_3/BiasAdd:0): Conv2d(16, 32, kernel_size=(4, 4), stride=(2, 2))
  (Relu_sequential_1/conv2d_3/Relu:0): ReLU(inplace=True)
  (Transpose_sequential_1/conv2d_3/BiasAdd__13:0): Transpose()
  (Reshape_sequential_1/flatten_1/Reshape:0): Reshape(shape=[  -1 1152])
  (MatMul_sequential_1/dense_3/BiasAdd:0): Linear(in_features=1152, out_features=128, bias=True)
  (Relu_sequential_1/dense_3/Relu:0): ReLU(inplace=True)
  (MatMul_sequential_1/dense_4/BiasAdd:0): Linear(in_features=128, out_features=64, bias=True)
  (Relu_sequential_1/dense_4/Relu:0): ReLU(inplace=True)
  (MatMul_Identity:0): Linear(in_features=64, out_features=10, bias=True)
)
Model converted to NCHW format: Sequential(
  (0): Conv2d(3, 16, kernel_size=(4, 4), stride=(2, 2))
  (1): ReLU(inplace=True)
  (2): Conv2d(16, 32, kernel_size=(4, 4), stride=(2, 2))
  (3): ReLU(inplace=True)
  (4): Transpose()
  (5): Flatten(start_dim=1, end_dim=-1)
  (6): Linear(in_features=1152, out_features=128, bias=True)
  (7): ReLU(inplace=True)
  (8): Linear(in_features=128, out_features=64, bias=True)
  (9): ReLU(inplace=True)
  (10): Linear(in_features=64, out_features=10, bias=True)
)
Scaling timeout: 300.0 -> 75.0
Total VNNLIB file length: 1, max property batch size: 1, total number of batches: 1

Properties batch 0, size 1
Remaining timeout: 72.71702122688293
##### [0] Spec matrix: [[[ 1.  0.  0.  0.  0. -1.  0.  0.  0.  0.]
  [ 0.  1.  0.  0.  0. -1.  0.  0.  0.  0.]
  [ 0.  0.  1.  0.  0. -1.  0.  0.  0.  0.]
  [ 0.  0.  0.  1.  0. -1.  0.  0.  0.  0.]
…
