…
customized start/end sample from 0 to 1

 %%%%%%%%%%%%%%%%%%%%%%%%%%%%%%%%%%% idx: 0, vnnlib ID: 0 %%%%%%%%%%%%%%%%%%%%%%%%%%%%%%%%%%%%%%%%
Using onnx onnx/CIFAR100_resnet_small.onnx
Using vnnlib vnnlib/CIFAR100_resnet_small_prop_idx_7129_sidx_1634_eps_0.0039.vnnlib
Loading onnx ../../vnncomp2022_benchmarks/benchmarks/cifar100_tinyimagenet_resnet/onnx/CIFAR100_resnet_small.onnx wih quirks {}
Onnx optimization with flag merge_bn
Found existed optimized onnx model at ../../vnncomp2022_benchmarks/benchmarks/cifar100_tinyimagenet_resnet/onnx/CIFAR100_resnet_small.onnx.optimized
ConvertModel(
  (Conv_72): Conv2d(3, 64, kernel_size=(3, 3), stride=(2, 2))
  (Relu_73): ReLU(inplace=True)
  (Conv_75): Conv2d(64, 128, kernel_size=(3, 3), stride=(2, 2), padding=(1, 1))
  (Relu_76): ReLU(inplace=True)
  (Conv_78): Conv2d(128, 128, kernel_size=(3, 3), stride=(1, 1), padding=(1, 1))
  (Conv_80): Conv2d(64, 128, kernel_size=(1, 1), stride=(2, 2))
  (Add_81): Add()
  (Relu_82): ReLU(inplace=True)
  (Conv_84): Conv2d(128, 128, kernel_size=(3, 3), stride=(1, 1), padding=(1, 1))
  (Relu_85): ReLU(inplace=True)
  (Conv_87): Conv2d(128, 128, kernel_size=(3, 3), stride=(1, 1), padding=(1, 1))
  (Add_88): Add()
  (Relu_89): ReLU(inplace=True)
  (Conv_91): Conv2d(128, 128, kernel_size=(3, 3), stride=(2, 2), padding=(1, 1))
  (Relu_92): ReLU(inplace=True)
  (Conv_94): Conv2d(128, 128, kernel_size=(3, 3), stride=(1, 1), padding=(1, 1))
  (Conv_96): Conv2d(128, 128, kernel_size=(1, 1), stride=(2, 2))
  (Add_97): Add()
  (Relu_98): ReLU(inplace=True)
  (Conv_100): Conv2d(128, 128, kernel_size=(3, 3), stride=(1, 1), padding=(1, 1))
  (Relu_101): ReLU(inplace=True)
  (Conv_103): Conv2d(128, 128, kernel_size=(3, 3), stride=(1, 1), padding=(1, 1))
  (Add_104): Add()
  (Relu_105): ReLU(inplace=True)
  (Flatten_106): Flatten()
  (Gemm_107): Linear(in_features=2048, out_features=100, bias=True)
  (Relu_108): ReLU(inplace=True)
  (Gemm_modelOutput): Linear(in_features=100, out_features=100, bias=True)
)
Precompiled vnnlib file found at ../../vnncomp2022_benchmarks/benchmarks/cifar100_tinyimagenet_resnet/vnnlib/CIFAR100_resnet_small_prop_idx_7129_sidx_1634_eps_0.0039.vnnlib.compiled
Model prediction is: tensor([[ … device='cuda:0')
layer /54 using sparse-features alpha with shape [553]; unstable size 553; total size 14400 (torch.Size([1, 64, 15, 15]))
…
