…
    max_dive_fix_ratio: 0.8
    min_local_free_ratio: 0.2
    mip_timeout: 30.0
    mip_start_iteration: 5
    max_dive_domains: -1
    num_dive_constraints: 50
    dive_rate: 0.2
    adv_dive: false
    adv_pool_threshold: null
    refined_mip_attacker: false
    refined_batch_size: null
attack:
  pgd_order: before
  use_auto_attack: false
  use_diversed_pgd: false
  enable_mip_attack: false
  pgd_steps: 100
  pgd_restarts: 50
  pgd_early_stop: true
  pgd_lr_decay: 0.99
  pgd_alpha: auto
debug:
  lp_test: null

Experiments at Mon May  2 21:37:46 2022 on diablo.cs.ucla.edu
DenseSequential(
  (0): Conv2d(3, 16, kernel_size=(3, 3), stride=(1, 1), padding=(1, 1))
  (1): ReLU()
  (2): Dense(
    (Ws): ModuleList(
      (0): Conv2d(16, 16, kernel_size=(3, 3), stride=(1, 1), padding=(1, 1))
    )
  )
  (3): ReLU()
  (4): Dense(
    (Ws): ModuleList(
      (0): Conv2d(16, 16, kernel_size=(1, 1), stride=(1, 1))
      (1): None
      (2): Conv2d(16, 16, kernel_size=(3, 3), stride=(1, 1), padding=(1, 1))
    )
  )
  (5): ReLU()
  (6): Dense(
    (Ws): ModuleList(
      (0): Conv2d(16, 16, kernel_size=(3, 3), stride=(1, 1), padding=(1, 1))
    )
  )
  (7): ReLU()
  (8): Dense(
    (Ws): ModuleList(
      (0): Conv2d(16, 16, kernel_size=(1, 1), stride=(1, 1))
      (1): None
      (2): Conv2d(16, 16, kernel_size=(3, 3), stride=(1, 1), padding=(1, 1))
    )
  )
  (9): ReLU()
  (10): Dense(
    (Ws): ModuleList(
      (0): Conv2d(16, 32, kernel_size=(4, 4), stride=(2, 2), padding=(1, 1))
    )
  )
  (11): ReLU()
  (12): Dense(
    (Ws): ModuleList(
      (0): Conv2d(16, 32, kernel_size=(2, 2), stride=(2, 2))
      (1): None
      (2): Conv2d(32, 32, kernel_size=(3, 3), stride=(1, 1), padding=(1, 1))
    )
  )
  (13): ReLU()
  (14): Dense(
    (Ws): ModuleList(
      (0): Conv2d(32, 64, kernel_size=(4, 4), stride=(2, 2), padding=(1, 1))
    )
  )
  (15): ReLU()
  (16): Dense(
    (Ws): ModuleList(
      (0): Conv2d(32, 64, kernel_size=(2, 2), stride=(2, 2))
      (1): None
      (2): Conv2d(64, 64, kernel_size=(3, 3), stride=(1, 1), padding=(1, 1))
    )
  )
  (17): ReLU()
  (18): Flatten()
  (19): Linear(in_features=4096, out_features=1000, bias=True)
  (20): ReLU()
  (21): Linear(in_features=1000, out_features=10, bias=True)
)
Trying generic MNIST/CIFAR data loader.
Files already downloaded and verified
epsilon after preprocessing: tensor([[[[0.1394]],

         [[0.1394]],

         [[0.1394]]]]), data_max = tensor([[[[2.2889]],

         [[2.4178]],

         [[2.6400]]]]), data_min = tensor([[[[-2.1556]],

         [[-2.0267]],

         [[-1.8044]]]])
Task length: 1
saving results to Verified_ret_[model_resnet]_start=4854_end=4855_iter=20_b=8_timeout=180_branching=kfsb-min-3_lra-init=0.1_lra=0.01_lrb=0.05_PGD=before.npy
…
