…
, lp_test=None, lr_alpha=0.01, lr_beta=0.05, lr_decay=0.98, lr_init_alpha=0.1, lr_intermediate_beta=0.05, max_refinement_domains=1000, max_subproblems_list=200000, mip_multi_proc=None, mip_perneuron_refine_timeout=15, mip_refine_timeout=0.8, mip_threads=1, mode='verified-acc', model='model_resnet', no_beta=False, no_joint_opt=False, no_warm=False, norm=inf, opt_bias=False, opt_coeffs=False, opt_intermediate_beta=False, optimizer='adam', pgd_order='before', record_lb=False, refinement_batch_size=-1, seed=100, share_slopes=False, solve_slope=True, start=9134, timeout=180.0)
DenseSequential(
  (0): Conv2d(3, 16, kernel_size=(3, 3), stride=(1, 1), padding=(1, 1))
  (1): ReLU()
  (2): Dense(
    (Ws): ModuleList(
      (0): Conv2d(16, 16, kernel_size=(3, 3), stride=(1, 1), padding=(1, 1))
    )
  )
  (3): ReLU()
  (4): Dense(
    (Ws): ModuleList(
      (0): Conv2d(16, 16, kernel_size=(1, 1), stride=(1, 1))
      (1): None
      (2): Conv2d(16, 16, kernel_size=(3, 3), stride=(1, 1), padding=(1, 1))
    )
  )
  (5): ReLU()
  (6): Dense(
    (Ws): ModuleList(
      (0): Conv2d(16, 16, kernel_size=(3, 3), stride=(1, 1), padding=(1, 1))
    )
  )
  (7): ReLU()
  (8): Dense(
    (Ws): ModuleList(
      (0): Conv2d(16, 16, kernel_size=(1, 1), stride=(1, 1))
      (1): None
      (2): Conv2d(16, 16, kernel_size=(3, 3), stride=(1, 1), padding=(1, 1))
    )
  )
  (9): ReLU()
  (10): Dense(
    (Ws): ModuleList(
      (0): Conv2d(16, 32, kernel_size=(4, 4), stride=(2, 2), padding=(1, 1))
    )
  )
  (11): ReLU()
  (12): Dense(
    (Ws): ModuleList(
      (0): Conv2d(16, 32, kernel_size=(2, 2), stride=(2, 2))
      (1): None
      (2): Conv2d(32, 32, kernel_size=(3, 3), stride=(1, 1), padding=(1, 1))
    )
  )
  (13): ReLU()
  (14): Dense(
    (Ws): ModuleList(
      (0): Conv2d(32, 64, kernel_size=(4, 4), stride=(2, 2), padding=(1, 1))
    )
  )
  (15): ReLU()
  (16): Dense(
    (Ws): ModuleList(
      (0): Conv2d(32, 64, kernel_size=(2, 2), stride=(2, 2))
      (1): None
      (2): Conv2d(64, 64, kernel_size=(3, 3), stride=(1, 1), padding=(1, 1))
    )
  )
  (17): ReLU()
  (18): Flatten()
  (19): Linear(in_features=4096, out_features=1000, bias=True)
  (20): ReLU()
  (21): Linear(in_features=1000, out_features=10, bias=True)
)
complete verification for verified accuracy, set decision_thresh to be 0
Files already downloaded and verified
epsilon after preprocession: tensor([[[[0.1394]]]]), data_max = tensor([[[[2.2889]],

         [[2.4178]],

         [[2.6400]]]]), data_min = tensor([[[[-2.1556]],

         [[-2.0267]],

         [[-1.8044]]]])
saving results to Verified_ret_[model_resnet]_start=9134_end=9135_iter=20_b=8_int-beta=False_timeout=180.0_branching=kfsb-min-3_lra-init=0.1_lra=0.01_lrb=0.05_PGD=before.npy
…
