…
customized start/end sample from 34 to 35

 %%%%%%%%%%%%%%%%%%%%%%%%%%%%%%%%%%% idx: 0, vnnlib ID: 34 %%%%%%%%%%%%%%%%%%%%%%%%%%%%%%%%%%%%%%%%
Using onnx onnx/CIFAR100_resnet_large.onnx
Using vnnlib vnnlib/CIFAR100_resnet_large_prop_idx_5586_sidx_80_eps_0.0039.vnnlib
Loading onnx ../../vnncomp2022_benchmarks/benchmarks/cifar100_tinyimagenet_resnet/onnx/CIFAR100_resnet_large.onnx wih quirks {}
Onnx optimization with flag merge_bn
Found existed optimized onnx model at ../../vnncomp2022_benchmarks/benchmarks/cifar100_tinyimagenet_resnet/onnx/CIFAR100_resnet_large.onnx.optimized
ConvertModel(
  (Conv_126): Conv2d(3, 64, kernel_size=(3, 3), stride=(1, 1), padding=(1, 1))
  (Relu_127): ReLU(inplace=True)
  (Conv_129): Conv2d(64, 64, kernel_size=(3, 3), stride=(1, 1), padding=(1, 1))
  (Relu_130): ReLU(inplace=True)
  (Conv_132): Conv2d(64, 64, kernel_size=(3, 3), stride=(1, 1), padding=(1, 1))
  (Add_133): Add()
  (Conv_135): Conv2d(64, 64, kernel_size=(3, 3), stride=(1, 1), padding=(1, 1))
  (Relu_136): ReLU(inplace=True)
  (Conv_138): Conv2d(64, 64, kernel_size=(3, 3), stride=(1, 1), padding=(1, 1))
  (Add_139): Add()
  (Conv_141): Conv2d(64, 128, kernel_size=(3, 3), stride=(2, 2), padding=(1, 1))
  (Relu_142): ReLU(inplace=True)
  (Conv_144): Conv2d(128, 128, kernel_size=(3, 3), stride=(1, 1), padding=(1, 1))
  (Conv_146): Conv2d(64, 128, kernel_size=(1, 1), stride=(2, 2))
  (Add_147): Add()
  (Conv_149): Conv2d(128, 128, kernel_size=(3, 3), stride=(1, 1), padding=(1, 1))
  (Relu_150): ReLU(inplace=True)
  (Conv_152): Conv2d(128, 128, kernel_size=(3, 3), stride=(1, 1), padding=(1, 1))
  (Add_153): Add()
  (Conv_155): Conv2d(128, 128, kernel_size=(3, 3), stride=(2, 2), padding=(1, 1))
  (Relu_156): ReLU(inplace=True)
  (Conv_158): Conv2d(128, 128, kernel_size=(3, 3), stride=(1, 1), padding=(1, 1))
  (Conv_160): Conv2d(128, 128, kernel_size=(1, 1), stride=(2, 2))
  (Add_161): Add()
  (Conv_163): Conv2d(128, 128, kernel_size=(3, 3), stride=(1, 1), padding=(1, 1))
  (Relu_164): ReLU(inplace=True)
  (Conv_166): Conv2d(128, 128, kernel_size=(3, 3), stride=(1, 1), padding=(1, 1))
  (Add_167): Add()
  (Conv_169): Conv2d(128, 256, kernel_size=(3, 3), stride=(2, 2), padding=(1, 1))
  (Relu_170): ReLU(inplace=True)
  (Conv_172): Conv2d(256, 256, kernel_size=(3, 3), stride=(1, 1), padding=(1, 1))
  (Conv_174): Conv2d(128, 256, kernel_size=(1, 1), stride=(2, 2))
  (Add_175): Add()
  (Conv_177): Conv2d(256, 256, kernel_size=(3, 3), stride=(1, 1), padding=(1, 1))
  (Relu_178): ReLU(inplace=True)
  (Conv_180): Conv2d(256, 256, kernel_size=(3, 3), stride=(1, 1), padding=(1, 1))
  (Add_181): Add()
  (Flatten_182): Flatten()
  (Gemm_183): Linear(in_features=4096, out_features=100, bias=True)
  (Relu_184): ReLU(inplace=True)
  (Gemm_modelOutput): Linear(in_features=100, out_features=100, bias=True)
)
Precompiled vnnlib file found at ../../vnncomp2022_benchmarks/benchmarks/cifar100_tinyimagenet_resnet/vnnlib/CIFAR100_resnet_large_prop_idx_5586_sidx_80_eps_0.0039.vnnlib.compiled
Model prediction is: tensor([[… device='cuda:0')/home/zhouxingshi/onnx2pytorch/onnx2pytorch/convert/model.py:154: UserWarning: Using experimental implementation that allows 'batch_size > 1'.Batchnorm layers could potentially produce false outputs.
…
