…
customized start/end sample from 71 to 72

 %%%%%%%%%%%%%%%%%%%%%%%%%%%%%%%%%%% idx: 0, vnnlib ID: 71 %%%%%%%%%%%%%%%%%%%%%%%%%%%%%%%%%%%%%%%%
Using onnx onnx/CIFAR100_resnet_super.onnx
Using vnnlib vnnlib/CIFAR100_resnet_super_prop_idx_2157_sidx_8103_eps_0.0039.vnnlib
Loading onnx ../../vnncomp2022_benchmarks/benchmarks/cifar100_tinyimagenet_resnet/onnx/CIFAR100_resnet_super.onnx wih quirks {}
Onnx optimization with flag merge_bn
Found existed optimized onnx model at ../../vnncomp2022_benchmarks/benchmarks/cifar100_tinyimagenet_resnet/onnx/CIFAR100_resnet_super.onnx.optimized
ConvertModel(
  (Conv_138): Conv2d(3, 128, kernel_size=(3, 3), stride=(2, 2))
  (Relu_139): ReLU(inplace=True)
  (Conv_141): Conv2d(128, 128, kernel_size=(3, 3), stride=(2, 2), padding=(1, 1))
  (Relu_142): ReLU(inplace=True)
  (Conv_144): Conv2d(128, 128, kernel_size=(3, 3), stride=(1, 1), padding=(1, 1))
  (Conv_146): Conv2d(128, 128, kernel_size=(1, 1), stride=(2, 2))
  (Add_147): Add()
  (Conv_149): Conv2d(128, 128, kernel_size=(3, 3), stride=(1, 1), padding=(1, 1))
  (Relu_150): ReLU(inplace=True)
  (Conv_152): Conv2d(128, 128, kernel_size=(3, 3), stride=(1, 1), padding=(1, 1))
  (Add_153): Add()
  (Conv_155): Conv2d(128, 128, kernel_size=(3, 3), stride=(1, 1), padding=(1, 1))
  (Relu_156): ReLU(inplace=True)
  (Conv_158): Conv2d(128, 128, kernel_size=(3, 3), stride=(1, 1), padding=(1, 1))
  (Add_159): Add()
  (Conv_161): Conv2d(128, 256, kernel_size=(3, 3), stride=(2, 2), padding=(1, 1))
  (Relu_162): ReLU(inplace=True)
  (Conv_164): Conv2d(256, 256, kernel_size=(3, 3), stride=(1, 1), padding=(1, 1))
  (Conv_166): Conv2d(128, 256, kernel_size=(1, 1), stride=(2, 2))
  (Add_167): Add()
  (Conv_169): Conv2d(256, 256, kernel_size=(3, 3), stride=(1, 1), padding=(1, 1))
  (Relu_170): ReLU(inplace=True)
  (Conv_172): Conv2d(256, 256, kernel_size=(3, 3), stride=(1, 1), padding=(1, 1))
  (Add_173): Add()
  (Conv_175): Conv2d(256, 256, kernel_size=(3, 3), stride=(1, 1), padding=(1, 1))
  (Relu_176): ReLU(inplace=True)
  (Conv_178): Conv2d(256, 256, kernel_size=(3, 3), stride=(1, 1), padding=(1, 1))
  (Add_179): Add()
  (Conv_181): Conv2d(256, 256, kernel_size=(3, 3), stride=(2, 2), padding=(1, 1))
  (Relu_182): ReLU(inplace=True)
  (Conv_184): Conv2d(256, 256, kernel_size=(3, 3), stride=(1, 1), padding=(1, 1))
  (Conv_186): Conv2d(256, 256, kernel_size=(1, 1), stride=(2, 2))
  (Add_187): Add()
  (Conv_189): Conv2d(256, 256, kernel_size=(3, 3), stride=(1, 1), padding=(1, 1))
  (Relu_190): ReLU(inplace=True)
  (Conv_192): Conv2d(256, 256, kernel_size=(3, 3), stride=(1, 1), padding=(1, 1))
  (Add_193): Add()
  (Conv_195): Conv2d(256, 256, kernel_size=(3, 3), stride=(1, 1), padding=(1, 1))
  (Relu_196): ReLU(inplace=True)
  (Conv_198): Conv2d(256, 256, kernel_size=(3, 3), stride=(1, 1), padding=(1, 1))
  (Add_199): Add()
  (Flatten_200): Flatten()
  (Gemm_201): Linear(in_features=1024, out_features=100, bias=True)
  (Relu_202): ReLU(inplace=True)
  (Gemm_modelOutput): Linear(in_features=100, out_features=100, bias=True)
)
Precompiled vnnlib file found at ../../vnncomp2022_benchmarks/benchmarks/cifar100_tinyimagenet_resnet/vnnlib/CIFAR100_resnet_super_prop_idx_2157_sidx_8103_eps_0.0039.vnnlib.compiled
Model prediction is: tensor([[ … device='cuda:0')
layer /98 using sparse-features alpha with shape [823]; unstable size 823; total size 28800 (torch.Size([1, 128, 15, 15]))
…
